model/model.pth (torch, 22931 bytes, 4 tensors)

linear1.weight f4 [256, 17]
-0.15936606 -0.09358663 0.47880328 0.040214036 -0.09250855 -0.18763705 -0.16523603 -0.0011204572
-0.26522383 -0.080520615 0.1534986 0.25078237 -0.13110518 0.51709217 0.15284623 -0.11555424
-0.2061363 0.15826666 -0.20242631 0.13905016 0.172676 -0.06191163 0.14154245 -0.023253564
0.37959167 0.3421664 -0.4034856 -0.10124329 -0.5734743 -0.42412087 0.3627736 0.37942225
-0.12979072 0.09086833 0.2636243 -0.17103322 -0.30169958 0.100375175 -0.19557495 -0.016727852
0.21942991 0.34096742 0.34568146 0.2883831 0.18046114 -0.22518742 0.057052907 -0.16978663
0.024007343 0.49464586 0.4329765 -0.4243884 0.42403892 0.34657976 -0.15153188 0.11534973
-0.16723156 0.2750907 -0.09729606 0.12709379 0.18813586 -0.005805374 0.16737483 0.00865376
0.3335415 0.21085231 0.19111866 -0.22666231 -0.55872613 0.370255 -0.41800174 -0.44283554
0.04688807 -0.18404587 0.12013083 -0.2675406 -0.02697107 0.038646944 -0.08384742 0.28270018
0.16884273 0.019124819 0.41825473 -0.03280695 -0.20008136 -0.09151711 0.6310468 -0.17644309
-0.20640318 0.086734354 -0.19501765 0.10456427 0.024894018 -0.22047095 -0.20544946 0.06496916
0.041309327 0.4186325 0.31073612 0.15950571 0.11770239 0.12509514 0.60676885 0.32369152
-0.6288946 0.11317209 0.10336751 0.13405836 0.037706114 0.25245115 -0.032700684 0.07079464
-0.0039470377 0.16699398 -0.14729227 -0.3274424 0.012878255 -0.22374824 -0.1186208 0.34393257
-0.67109054 0.17085026 0.22347793 0.15860434 0.13992247 0.33639646 -0.1327534 -0.035063885
-0.21749538 0.1821872 0.11082155 -0.30826816 -0.28903863 -0.22316402 0.1008289 -0.26840603
-0.07658675 -0.2124624 -0.010341769 -0.036457982 0.0756267 -0.043432213 -0.03335479 -0.012007955
-0.06267603 -0.08973598 0.1173304 -0.008435626 -0.25169772 0.0013357861 -0.0067566657 -0.2707654
-0.14838877 0.25179234 -0.19148277 0.1451667 0.13475536 -0.18317571 0.062297422 0.013286229
-0.48998037 0.10655033 -0.6503917 0.04011767 0.45007268 -0.1432255 0.53788126 -0.09963848
0.10816005 -0.065092556 -0.03182764 -0.46932694 -0.27254903 0.11460202 -0.11853191 -0.29694667
-0.39434084 -0.20515186 0.26913026 -0.16968578 0.22413798 0.43306905 0.0060960073 0.38190058
0.14195487 0.06471666 -0.022755496 -0.15321667 0.2541863 -0.056811027 0.08269026 0.05954347
-0.12602106 -0.104155935 -0.12987913 0.09657853 0.022160353 0.08387109 -0.080822475 -0.11627998
-0.26608387 -0.038664665 -0.0669819 -0.21434753 0.21799628 -0.80092806 0.38361886 0.25771257
-0.20658357 -0.100538924 -0.14094326 -0.0015163537 -0.11747914 0.12659203 -0.18205737 0.05393143
-0.19999246 0.14587885 -0.16411209 0.15136552 -0.023908934 0.4411652 0.17353849 -0.5726696
0.3529367 0.23207177 -0.26340747 0.37581763 -0.05461812 -0.14593738 -0.24828285 -0.11881413
0.14943713 0.31971863 0.35941157 0.41260475 -0.18872805 0.0005148917 -0.22687525 0.14419623
0.002281638 -0.08220931 -0.12762727 0.089279614 -0.16823569 -0.6019335 -0.59340274 -0.48659188
0.35663778 -0.18606983 -0.60988784 -0.31674376 0.35109353 0.21307412 -0.112570696 0.22399466
00000000: db30 23be 59aa bfbd b425 f53e 79b7 243d
00000010: 1f75 bdbd ed23 40be a233 29be 4edc 92ba
00000020: 6bcb 87be fee7 a4bd bd2e 1d3e 8c66 803e
00000030: 7040 06be 2760 043f b983 1c3e b4a7 ecbd
00000040: 6515 53be a810 223e d848 4fbe 2a63 0e3e
00000050: fad1 303e 0d97 7dbd 81f0 103e 427e bebc
00000060: d759 c23e 6f30 af3e aa95 cebe a458 cfbd
00000070: 36cf 12bf 5f26 d9be 76bd b93e a243 c23e
00000080: dce7 04be 2d19 ba3d c4f9 863e 5523 2fbe
00000090: 5e78 9abe 8091 cd3d cd44 48be d908 89bc
000000a0: 3cb2 603e 4893 ae3e 29fd b03e f3a6 933e
000000b0: ceca 383e 8897 66be 4fb0 693d 8cdc 2dbe
000000c0: 0cab c43c 3942 fd3e 19af dd3e 7049 d9be
000000d0: a11b d93e e772 b13e 2c2b 1bbe 7b3c ec3d
000000e0: c03e 2bbe b0d8 8c3e 2843 c7bd e024 023e
000000f0: b0a6 403e 023b bebb 4f64 2b3e 80c8 0d3c
00000100: f4c5 aa3e abe9 573e 9cb4 433e 2a1a 68be
00000110: ad08 0fbf 1092 bd3e 5304 d6be 57bb e2be
00000120: b40d 403d 8576 3cbe 2707 f63d 15fb 88be
00000130: 6ff2 dcbc 424c 1e3d 32b8 abbd 14be 903e
00000140: 1ce5 2c3e a7ab 9c3c 7c25 d63e 9560 06bd
00000150: 21e2 4cbe 536d bbbd 488c 213f 7fad 34be
00000160: 5b5b 53be c8a1 b13d b5b2 47be cb25 d63d
00000170: 8aee cb3c 23c3 61be 5861 52be 8d0e 853d
00000180: f833 293d 0057 d63e ce18 9f3e 7755 233e
00000190: f30d f13d f118 003e 3455 1b3f e5ba a53e
000001a0: 3dff 20bf c5c6 e73d 58b2 d33d 9846 093e
000001b0: ba71 1a3d 4741 813e 27f1 05bd c8fc 903d
000001c0: 2756 81bb 7800 2b3e c9d3 16be 88a6 a7be
000001d0: 51ff 523c 421e 65be 76ef f2bd ee17 b03e
000001e0: 97cc 2bbf 5ff3 2e3e 66d7 643e 2d69 223e
000001f0: d647 0f3e 283c ac3e 82f0 07be 269f 0fbd
00000200: 1cb7 5ebe 488f 3a3e 69f6 e23d 53d5 9dbe
00000210: dffc 93be 1c85 64be 627f ce3d 846c 89be
00000220: 84d9 9cbd be8f 59be 8670 29bc f754 15bd
00000230: 2ce2 9a3d fae5 31bd 089f 08bd 04bd 44bc
00000240: 4a5c 80bd 7fc7 b7bd ec4a f03d 9435 0abc
00000250: 86de 80be 8b15 af3a 0567 ddbb c3a1 8abe
00000260: 3af3 17be edea 803e 0f14 44be 94a6 143e
00000270: 4ffd 093e 6a92 3bbe 952b 7f3d 7cae 593c
00000280: b5de fabe 0f37 da3d 1280 26bf 6d52 243d
00000290: ed6f e63e b5a9 12be 96b2 093f 420f ccbd
000002a0: 0483 dd3d 3f4f 85bd b35d 02bd 9f4b f0be
000002b0: 8c8b 8bbe 77b4 ea3d dcc0 f2bd 6509 98be
000002c0: 0be7 c9be 5413 52be 71cb 893e 1cc2 2dbe
000002d0: 6d84 653e 3abb dd3e 04c1 c73b 7988 c33e
000002e0: 9e5c 113e 2b8a 843d bc69 babc d5e4 1cbe
000002f0: b524 823e aeb2 68bd 8359 a93d dbe3 733d
00000300: aa0b 01be b54f d5bd 09ff 04be f7ca c53d
00000310: a189 b53c 9bc4 ab3d 4186 a5bd 3324 eebd
00000320: 253c 88be d75e 1ebd ce2d 89bd eb7d 5bbe
00000330: 6b3a 5f3e 9f09 4dbf b169 c43e e7f2 833e
00000340: a58a 53be 5ae7 cdbd 6e53 10be 63c0 c6ba
00000350: e798 f0bd 57a1 013e 3f6d 3abe 34e7 5c3d
00000360: d3ca 4cbe 4461 153e 000d 28be 90ff 1a3e
00000370: abdc c3bc 68e0 e13e 13b4 313e 7a9a 12bf
00000380: 1fb4 b43e 39a4 6d3e 58dd 86be 2b6b c03e
00000390: 40b7 5fbd 9c70 15be dc3d 7ebe d354 f3bd
000003a0: 0c06 193e 29b2 a33e cb04 b83e ee40 d33e
000003b0: ed41 41be ccf9 063a fc51 68be 2da8 133e
000003c0: 8987 153b 5b5d a8bd b9b0 02be 3bd8 b63d
000003d0: fa45 2cbe 5018 1abf 3ee9 17bf 9222 f9be
000003e0: 3a99 b63e 1789 3ebe 9c21 1cbf 3d2c a2be
000003f0: 88c2 b33e 1a30 5a3e 778b e6bd db5e 653e

linear1.bias f4 [256]
0.21789923 -0.077436104 0.34776622 -0.14909881 -0.18509729 -0.2815193 0.21922418 0.05619059
-0.043231748 0.0029090736 -0.26785025 -0.29062715 0.28857884 -0.13845177 0.088471994 -0.44674265
-0.30351305 0.038050752 -0.19202444 0.057720516 -0.12683015 -0.12357631 -0.18177265 -0.15273057
-0.28253117 -0.18406124 0.63426757 0.40165013 -0.30271998 -0.048782755 -0.23809674 0.07926371
0.225742 -0.026146006 0.3533077 0.27213192 0.03320843 -0.2657594 -0.25121093 -0.05232786
0.23692483 0.35304525 0.4732724 -0.16437903 -0.13767183 0.22659497 -0.18005067 -0.1032409
-0.01678426 0.034645565 -0.20953053 0.23575518 -0.008339802 -0.23125432 -0.10779395 0.01006113
0.02357073 -0.25835288 0.15319723 0.047172096 0.0853809 -0.20718189 -0.3078803 0.28388357
-0.43556875 -0.30909646 0.011756465 -0.21761708 -0.050584998 0.15062325 0.6539765 0.26779228
-0.1723519 -0.31387678 -0.030181363 -0.040266167 0.20310043 -0.40054283 0.5446215 0.67400986
-0.027061367 0.24602187 -0.24982804 0.1596678 -0.01499176 0.2612849 0.30233347 0.2707644
-0.15437438 -0.5436281 0.15923265 -0.251869 -0.023374068 -0.14441542 0.014115221 -0.24889646
0.098664306 -0.3105795 -0.13343585 -0.21306235 -0.24318703 -0.54188234 0.28062654 0.17892206
-0.5167036 -0.28086674 0.14658979 -0.38499883 -0.0017092457 -0.09188176 0.15134667 -0.26822934
0.18614674 0.08491243 -0.10020113 0.07973842 -0.029325312 -0.17669828 -0.15655199 -0.20150776
0.13686833 -0.009469093 -0.35518175 0.119403794 0.2595815 -0.072771475 -0.34321073 0.2265561
-0.21565156 0.41081816 -0.12303811 -0.30821127 0.059390284 0.08930698 -0.088881515 0.034154963
0.40611944 -0.2577107 0.29094556 -0.07315167 -0.2431288 -0.14470339 -0.19129604 0.18708795
0.22007242 -0.3124726 -0.034724865 -0.18218876 -0.19156381 -0.02322014 -0.03524883 -0.30877694
-0.10813601 -0.24662833 -0.11948264 -0.442121 -0.24084727 0.028440153 0.29123765 0.058074757
0.020815562 -0.37429535 0.19248909 0.36808515 0.024063619 -0.23998393 -0.35076544 -0.1454337
0.25316626 -0.42652386 0.17628261 0.184684 -0.26496384 0.054531254 0.12836127 -0.18822555
-0.0653018 0.12915936 0.12624286 0.37011376 -0.1997391 -0.22265007 -0.42361712 -0.24407202
-0.20716871 0.2746069 -0.22133654 -0.07125058 0.19293907 0.0877581 -0.32500842 -0.39396536
0.07545578 0.14253992 -0.41444618 -0.34493992 -0.5088906 -0.32651946 -0.29309696 0.26750427
0.3398548 -0.11252299 -0.049466856 -0.055581808 -0.03797739 -0.15718602 0.45174965 -0.0048697954
-0.005813569 -0.13112009 -0.16720954 -0.38213578 -0.21792497 -0.13331935 -0.12278695 0.1657436
-0.1436465 0.020837365 0.14480695 -0.45545793 -0.13034682 -0.27029002 -0.0132744955 -0.009831939
0.28460976 0.27234566 -0.21545963 -0.2966503 -0.1548457 -0.20083576 -0.040375035 -0.083101414
-0.17736204 0.3376447 -0.15498361 0.15725383 0.1011264 -0.1513779 -0.24994259 -0.43309408
-0.15642712 0.1603796 0.25482348 -0.13400975 0.05647644 -0.09897088 -0.24371588 1.054704
-0.35266635 0.45998576 0.18718982 -0.15984195 0.1800379 -0.08704274 -0.1403524 -0.09249229
00000000: fa20 5f3e d296 9ebd 6a0e b23e 5cad 18be
00000010: 258a 3dbe 4c23 90be 4e7c 603e 1b28 663d
00000020: c613 31bd 28a6 3e3b ab23 89be 15cd 94be
00000030: 9bc0 933e 4dc6 0dbe ce30 b53d 74bb e4be
00000040: 1066 9bbe 1bdb 1b3d 0ea2 44be 596c 6c3d
00000050: c3df 01be 9415 fdbd 9c22 3abe 6765 1cbe
00000060: eda7 90be 8d7a 3cbe 5c5f 223f 16a5 cd3e
00000070: 1dfe 9abe 6dd0 47bd a2cf 73be 0355 a23d
00000080: e928 673e 2630 d6bc bfe4 b43e e054 8b3e
00000090: 9005 083d 9e11 88be b89e 80be bd55 56bd
000000a0: 6c9c 723e 59c2 b43e c350 f23e fa52 28be
000000b0: d8f9 0cbe 8308 683e 345f 38be f76f d3bd
000000c0: 257f 89bc 82e8 0d3d 2c8f 56be ce69 713e
000000d0: aaa3 08bc efcd 6cbe 13c3 dcbd 70d7 243c
000000e0: 6717 c13c d446 84be bcdf 1c3e 8737 413d
000000f0: 2edc ae3d 7d27 54be 7da2 9dbe 3059 913e
00000100: de02 dfbe e441 9ebe 309e 403c 03d7 5ebe
00000110: 3732 4fbd fb3c 1a3e 016b 273f 121c 893e
00000120: 047d 30be 75b4 a0be e83e f7bc 23ee 24bd
00000130: 8ff9 4f3e f313 cdbe 516c 0b3f e98b 2c3f
00000140: cdaf ddbc 28ed 7b3e ecd2 7fbe f57f 233e
00000150: 00a0 75bc 22c7 853e 74cb 9a3e a2a1 8a3e
00000160: 5114 1ebe 362b 0bbf e20d 233e f9f4 80be
00000170: f97a bfbc a3e1 13be 8743 673c b7de 7ebe
00000180: 8310 ca3d 4704 9fbe 68a3 08be 042d 5abe
00000190: 0506 79be cdb8 0abf 48ae 8f3e 5837 373e
000001a0: b046 04bf c4cd 8fbe a21b 163e 911e c5be
000001b0: c508 e0ba 812c bcbd 9ffa 1a3e 5b55 89be
000001c0: 409d 3e3e 91e6 ad3d 4036 cdbd e64d a33d
000001d0: a33b f0bc 65f0 34be 2a4f 20be 0d58 4ebe
000001e0: 3627 0c3e 4124 1bbc 62da b5be fa89 f43d
000001f0: dee7 843e 3609 95bd 51b9 afbe 53fe 673e
00000200: c3d3 5cbe c256 d23e 68fb fbbd decd 9dbe
00000210: 3a43 733d 94e6 b63d 8307 b6bd 13e6 0b3d
00000220: e3ee cf3e a8f2 83be d1f6 943e 8bd0 95bd
00000230: c2f6 78be 202d 14be 1ce3 43be fc93 3f3e
00000240: aa5a 613e 69fc 9fbe a93b 0ebd b18f 3abe
00000250: 4e29 44be 2a38 bebc 1461 10bd 0318 9ebe
00000260: 6a76 ddbd 238c 7cbe 50b3 f4bd af5d e2be
00000270: aba0 76be 53fb e83c 1a1d 953e ccdf 6d3d
00000280: 6685 aa3c a4a3 bfbe dc1b 453e a875 bc3e
00000290: 1121 c53c 59be 75be 8797 b3be 92ec 14be
000002a0: 029f 813e 5661 dabe 6e83 343e cd1d 3d3e
000002b0: 57a9 87be 2a5c 5f3d 2371 033e 33be 40be
000002c0: f3bc 85bd 5a42 043e cf45 013e 8d7f bd3e
000002d0: 6888 4cbe 61fe 63be 58e4 d8be 04ee 79be
000002e0: 0924 54be 4799 8c3e 0ca6 62be d3eb 91bd
000002f0: d291 453e 85ba b33d 8167 a6be d4b5 c9be
00000300: 8f88 9a3d fcf5 113e 4a32 d4be f79b b0be
00000310: a846 02bf 8f2d a7be ce10 96be 52f6 883e
00000320: 7301 ae3e 7472 e6bd c29d 4abd c0a9 63bd
00000330: 2e8e 1bbd 5ff5 20be bb4b e73e ce92 9fbb
00000340: c07f bebb 5844 06be fa38 2bbe 4da7 c3be
00000350: b927 5fbe de84 08be b977 fbbd b1b8 293e
00000360: 1118 13be 1fb3 aa3c 4648 143e c831 e9be
00000370: a379 05be 7463 8abe 457d 59bc 2416 21bc
00000380: 5fb8 913e e470 8b3e 73a1 5cbe 8ce2 97be
00000390: df8f 1ebe e4a7 4dbe 4b60 25bd 1331 aabd
000003a0: 659e 35be c4df ac3e 06b4 1ebe 2607 213e
000003b0: 5c1b cf3d cf02 1bbe f3f0 7fbe 82be ddbe
000003c0: 6e2e 20be 8d3a 243e 3978 823e da39 09be
000003d0: d753 673d 3fb1 cabd a890 79be 8a00 873f
000003e0: af90 b4be 4183 eb3e b0ae 3f3e 9cad 23be
000003f0: db5b 383e 7743 b2bd 8ab8 0fbe 996c bdbd

linear2.weight f4 [3, 256]
0.20159973 -0.35018122 0.1668058 0.06751769 -0.048713565 -0.16355067 0.14243957 0.029463476
-0.007813792 -0.5623962 -0.38920206 0.030865727 0.14096837 -0.4381187 0.45911944 -0.16065301
-0.28163314 0.5052666 0.060397703 -0.8211113 -0.001476691 -0.40893033 -0.39182907 -0.4106965
-0.66287994 -0.1986959 0.3675992 0.3988832 -0.17052822 -0.63897496 -0.37765202 0.24162653
0.4781948 0.4934985 0.34271148 0.36672178 -0.40683627 -0.33881494 -0.6090629 -0.5549466
0.32122555 0.4017816 0.43574542 -0.22432587 -0.053955935 0.53125906 0.3387289 -0.25462484
-0.35278332 0.41614845 -0.104004465 0.51103646 -0.0047568134 0.0015635842 -0.27967352 0.4652525
0.10081389 0.049640805 0.19740261 0.107110634 0.6656875 -0.061932795 -0.3190853 0.3421806
-0.24297328 -0.27840203 -0.5568063 -0.089668825 0.38757223 0.33523583 0.52930313 -0.21190064
-0.21652088 -0.18584725 -0.65437084 0.37493992 0.6200263 -0.09153279 0.68990767 0.36196887
-0.25247613 0.43420488 -0.0045621274 0.46548554 -0.3746941 0.26195776 0.7024272 0.3572053
0.21968 -0.1333749 0.63256484 -0.28269705 0.030632468 -0.047218878 0.1026697 -0.5714099
0.34977138 0.02102358 -0.6667031 -0.45807523 -0.16971397 -0.3338835 0.35506517 0.55717254
-0.26461107 -0.5043157 0.2661046 -0.33850974 0.08171782 -0.17130233 -0.7163879 -0.2342583
0.34776637 -0.40883633 -0.5407756 -0.49711233 0.40445846 -0.24731448 -0.02190456 -0.5573278
0.44156516 0.1354566 -0.510893 0.30319932 0.35456413 -0.79428864 -0.2255417 0.45430076
-0.17818509 0.295977 -0.22419494 -0.19219045 -0.5848389 0.468012 -0.4174193 -0.62934923
0.6303428 -0.6175239 0.39742127 0.23555341 -0.2734495 0.04832535 0.23130386 0.455106
0.16321155 -0.53246325 -0.23646909 0.037713386 -0.5553524 -0.0061462596 -0.27215627 0.008070547
-0.3653021 -0.0020539053 -0.21950145 -0.1770971 -0.5984862 -0.010560711 0.45935276 0.3660873
0.48298448 -0.57103133 0.55312437 0.5757924 0.50996035 0.0038163823 -0.07201904 -0.5694828
0.15507635 -0.27247825 0.61508065 0.31191334 -0.25261644 0.2550145 0.46590173 -0.57513016
0.007722093 0.0005107873 0.37190202 0.42450196 0.0049166405 -0.17442523 -0.15042321 0.13182516
-0.40904707 0.23419611 0.04220618 -0.3755025 -0.4586234 0.32644293 0.03813607 0.014185204
0.30478448 0.5765115 -0.31966552 -0.11371102 -0.22076596 -0.306608 -0.31334764 0.38987342
0.33646336 -0.64847773 -0.63881564 0.34480673 -0.42839053 -0.114281505 0.56094223 -0.17221117
-0.27296612 -0.53976387 -0.08583108 -0.12670563 -0.011009978 0.038393624 -0.7887251 0.4617737
-0.5065318 0.51960194 -0.30502194 -0.21137846 -0.49718317 -0.14038785 0.017459854 -0.13221283
0.5985272 0.11829865 -0.05755993 -0.13832696 -0.6059904 -0.40229785 0.06656574 0.31552425
-0.0819387 0.7469519 -0.7573553 0.7607493 0.44101933 -0.46084836 -0.075968996 -0.21083663
0.25069368 0.30007482 0.31952167 -0.30236247 -0.1963052 -0.35526484 -0.30234888 0.28578162
-0.148497 0.61716735 0.29042587 -0.0062343944 -0.46484897 -0.03082522 -0.15906586 0.03930408
00000000: 2970 4e3e f44a b3be 24cf 2a3e b746 8a3d
00000010: e087 47bd d479 27be aedb 113e 635d f13c
00000020: 6b05 00bc 33f9 0fbf 7e45 c7be 1fda fc3c
00000030: 035a 103e 1851 e0be b411 eb3e 3982 24be
00000040: 3832 90be 2759 013f 9563 773d 5a34 52bf
00000050: 878d c1ba 515f d1be d29d c8be d046 d2be
00000060: 80b2 29bf f076 4bbe f635 bc3e 6b3a cc3e
00000070: f39e 2ebe dd93 23bf 9b5b c1be f26c 773e
00000080: f3d5 f43e d6ab fc3e e177 af3e f5c2 bb3e
00000090: d84c d0be 2779 adbe 8ceb 1bbf fb10 0ebf
000000a0: ad77 a43e 51b6 cd3e 061a df3e aeb5 65be
000000b0: e600 5dbd 9800 083f e06d ad3e 305e 82be
000000c0: 04a0 b4be 6911 d53e 4b00 d5bd 49d3 023f
000000d0: 0bdf 9bbb 2ef1 cc3a 5e31 8fbe 9335 ee3e
000000e0: 8377 ce3d 2854 4b3d e923 4a3e d25c db3d
000000f0: 7f6a 2a3f 3ead 7dbd 265f a3be 4c32 af3e
00000100: fdcd 78be b68a 8ebe dc8a 0ebf 4aa4 b7bd
00000110: de6f c63e 08a4 ab3e 6980 073f 7bfc 58be
00000120: a6b7 5dbe be4e 3ebe d984 27bf 20f8 bf3e
00000130: 0bba 1e3f 8b75 bbbd ca9d 303f fc53 b93e
00000140: 8d44 81be 1a50 de3e e67d 95bb 1f54 ee3e
00000150: e8d7 bfbe 541f 863e 45d2 333f 9de3 b63e
00000160: cbf3 603e 6e93 08be c5ef 213f abbd 90be
00000170: f1f0 fa3c 9568 41bd 7e44 d23d eb47 12bf
00000180: 3c15 b33e a539 ac3c 0ead 2abf d688 eabe
00000190: 80c9 2dbe c7f2 aabe 1acb b53e dca2 0e3f
000001a0: 1a7b 87be d51a 01bf dd3e 883e 2651 adbe
000001b0: ac5b a73d e169 2fbe 3365 37bf 68e1 6fbe
000001c0: 6f0e b23e ff52 d1be 4570 0abf 8285 febe
000001d0: 2e15 cf3e 0240 7dbe 3171 b3bc 09ad 0ebf
000001e0: d414 e23e 23b5 0a3e e2c9 02bf f13c 9b3e
000001f0: 6e89 b53e 8056 4bbf 67f4 66be 1c9a e83e
00000200: 2776 36be 4c8a 973e 5c93 65be 93cd 44be
00000210: 01b8 15bf 459f ef3e fcb7 d5be 081d 21bf
00000220: 255e 213f 0c16 1ebf cd7a cb3e ea34 713e
00000230: 9301 8cbe cdf0 453d ebda 6c3e a703 e93e
00000240: ee20 273e 834f 08bf f424 72be 5a79 1a3d
00000250: 932b 0ebf 9066 c9bb 1158 8bbe 543a 043c
00000260: e008 bbbe d09a 06bb fdc4 60be f158 35be
00000270: 6436 19bf d506 2dbc 4930 eb3e cb6f bb3e
00000280: be49 f73e 1c2f 12bf 8f99 0d3f 2167 133f
00000290: c38c 023f 451c 7a3b b87e 93bd a0c9 11bf
000002a0: 56cc 1e3e 4582 8bbe ed75 1d3f 1bb3 9f3e
000002b0: f156 81be 4391 823e ac8a ee3e bb3b 13bf
000002c0: 9c09 fd3b 5be6 053a f169 be3e 5258 d93e
000002d0: c51b a13b 879c 32be 8b08 1abe 2dfd 063e
000002e0: 9e6e d1be 1bd1 6f3e 63e0 2c3d dd41 c0be
000002f0: b0d0 eabe 8723 a73e 9134 1c3d 0f69 683c
00000300: b60c 9c3e 4296 133f 33ab a3be 53e1 e8bd
00000310: 7910 62be b9fb 9cbe 1a6f a0be 7d9d c73e
00000320: ed44 ac3e a302 26bf 6c89 23bf 828a b03e
00000330: 0156 dbbe 6c0c eabd e999 0f3f 2058 30be
00000340: 37c2 8bbe f72d 0abf 35c8 afbd 1fbf 01be
00000350: 3263 34bc a242 1d3d e3e9 49bf 9a6d ec3e
00000360: 11ac 01bf a204 053f d62b 9cbe 9873 58be
00000370: cb8e febe d5c1 0fbe f807 8f3c cd62 07be
00000380: 1439 193f 9046 f23d f6c3 6bbd 95a5 0dbe
00000390: 3022 1bbf fcf9 cdbe 9e53 883d 658c a13e
000003a0: 7acf a7bd 3d38 3f3f 09e2 41bf 77c0 423f
000003b0: 49cd e13e 51f4 ebbe a295 9bbd 8fe5 57be
000003c0: ec5a 803e 68a3 993e 5898 a33e 41cf 9abe
000003d0: 3b04 49be 46e5 b5be 79cd 9abe f851 923e
000003e0: 990f 18be aefe 1d3f b3b2 943e e449 ccbb
000003f0: af00 eebe 2c85 fcbc 29e2 22be 51fd 203d

linear2.bias f4 [3]
0.27402648 0.14719944 0.051883813
00000000: 334d 8c3e 73bb 163e 1f84 543d
